…
tor model architecture...\nModel Architecture:\nModel: \"XVector\"\n__________________________________________________________________________________________________\nLayer (type)                    Output Shape         Param #     Connected to                     \n==================================================================================================\ninput (InputLayer)              [(None, 400, 23)]    0                                            \n__________________________________________________________________________________________________\ntdnn1 (Conv1D)                  (None, 396, 512)     59392       input[0][0]                      \n__________________________________________________________________________________________________\nbn1 (BatchNormalization)        (None, 396, 512)     2048        tdnn1[0][0]                      \n__________________________________________________________________________________________________\ntdnn2 (Conv1D)                  (None, 392, 512)     786944      bn1[0][0]                        \n__________________________________________________________________________________________________\nbn2 (BatchNormalization)        (None, 392, 512)     2048        tdnn2[0][0]                      \n__________________________________________________________________________________________________\ntdnn3 (Conv1D)                  (None, 386, 512)     786944      bn2[0][0]                        \n__________________________________________________________________________________________________\nbn3 (BatchNormalization)        (None, 386, 512)     2048        tdnn3[0][0]                      \n__________________________________________________________________________________________________\ntdnn4 (Conv1D)                  (None, 386, 512)     262656      bn3[0][0]                        \n__________________________________________________________________________________________________\nbn4 (BatchNormalization)        (None, 386, 512)     2048        tdnn4[0][0]                      \n__________________________________________________________________________________________________\ntdnn5 (Conv1D)                  (None, 386, 1500)    769500      bn4[0][0]                        \n__________________________________________________________________________________________________\nbn5 (BatchNormalization)        (None, 386, 1500)    6000        tdnn5[0][0]                      \n__________________________________________________________________________________________________\nglobal_mean (GlobalAveragePooli (None, 1500)         0           bn5[0][0]                        \n__________________________________________________________________________________________________\nlambda_8 (Lambda)               (None, 1, 1500)      0           global_mean[0][0]                \n__________________________________________________________________________________________________\nlambda_9 (Lambda)               (None, None, 1500)   0           lambda_8[0][0]                   \n                                                                 bn5[0][0]                        \n__________________________________________________________________________________________________\nlambda_10 (Lambda)              (None, 1500)         0           bn5[0][0]                        \n                                                                 lambda_9[0][0]                   \n__________________________________________________________________________________________________\nlambda_11 (Lambda)              (None, 1500)         0           lambda_10[0][0]                  \n__________________________________________________________________________________________________\nstats_pool (Concatenate)        (None, 3000)         0           global_mean[0][0]                \n                                                                 lambda_11[0][0]                  \n__________________________________________________________________________________________________\nsegment1 (Dense)                (None, 512)          1536512     stats_pool[0][0]                 \n__________________________________________________________________________________________________\nbn6 (BatchNormalization)        (None, 512)          2048        segment1[0][0]                   \n__________________________________________________________________________________________________\ndropout1 (Dropout)              (None, 512)          0           bn6[0][0]                        \n__________________________________________________________________________________________________\nembeddings (Dense)              (None, 512)          262656      dropout1[0][0]                   \n__________________________________________________________________________________________________\nbn7 (BatchNormalization)        (None, 512)          2048        embeddings[0][0]                 \n__________________________________________________________________________________________________\ndropout2 (Dropout)              (None, 512)          0           bn7[0][0]                        \n__________________________________________________________________________________________________\nclassification (Dense)          (None, 5)            2565        dropout2[0][0]                   \n==================================================================================================\nTotal params: 4,485,457\nTrainable params: 4,476,313\nNon-trainable params: 9,144\n__________________________________________________________________________________________________\nCompiling model...\nTraining Configuration:\n- Training samples: 5789\n- V
…
.399771Z"}},"outputs":[{"name":"stdout","text":"Model: \"model_1\"\n__________________________________________________________________________________________________\nLayer (type)                    Output Shape         Param #     Connected to                     \n==================================================================================================\ninput (InputLayer)              [(None, 400, 23)]    0                                            \n__________________________________________________________________________________________________\ntdnn1 (Conv1D)                  (None, 396, 512)     59392       input[0][0]                      \n__________________________________________________________________________________________________\nbn1 (BatchNormalization)        (None, 396, 512)     2048        tdnn1[0][0]                      \n__________________________________________________________________________________________________\ntdnn2 (Conv1D)                  (None, 392, 512)     786944      bn1[0][0]                        \n__________________________________________________________________________________________________\nbn2 (BatchNormalization)        (None, 392, 512)     2048        tdnn2[0][0]                      \n__________________________________________________________________________________________________\ntdnn3 (Conv1D)                  (None, 386, 512)     786944      bn2[0][0]                        \n__________________________________________________________________________________________________\nbn3 (BatchNormalization)        (None, 386, 512)     2048        tdnn3[0][0]                      \n__________________________________________________________________________________________________\ntdnn4 (Conv1D)                  (None, 386, 512)     262656      bn3[0][0]                        \n__________________________________________________________________________________________________\nbn4 (BatchNormalization)        (None, 386, 512)     2048        tdnn4[0][0]                      \n__________________________________________________________________________________________________\ntdnn5 (Conv1D)                  (None, 386, 1500)    769500      bn4[0][0]                        \n__________________________________________________________________________________________________\nbn5 (BatchNormalization)        (None, 386, 1500)    6000        tdnn5[0][0]                      \n__________________________________________________________________________________________________\nglobal_mean (GlobalAveragePooli (None, 1500)         0           bn5[0][0]                        \n__________________________________________________________________________________________________\nlambda_8 (Lambda)               (None, 1, 1500)      0           global_mean[0][0]                \n__________________________________________________________________________________________________\nlambda_9 (Lambda)               (None, None, 1500)   0           lambda_8[0][0]                   \n                                                                 bn5[0][0]                        \n__________________________________________________________________________________________________\nlambda_10 (Lambda)              (None, 1500)         0           bn5[0][0]                        \n                                                                 lambda_9[0][0]                   \n__________________________________________________________________________________________________\nlambda_11 (Lambda)              (None, 1500)         0           lambda_10[0][0]                  \n__________________________________________________________________________________________________\nstats_pool (Concatenate)        (None, 3000)         0           global_mean[0][0]                \n                                                                 lambda_11[0][0]                  \n__________________________________________________________________________________________________\nsegment1 (Dense)                (None, 512)          1536512     stats_pool[0][0]                 \n__________________________________________________________________________________________________\nbn6 (BatchNormalization)        (None, 512)          2048        segment1[0][0]                   \n__________________________________________________________________________________________________\ndropout1 (Dropout)              (None, 512)          0           bn6[0][0]                        \n__________________________________________________________________________________________________\nembeddings (Dense)              (None, 512)          262656      dropout1[0][0]                   \n==================================================================================================\nTotal params: 4,480,844\nTrainable params: 4,472,724\nNon-trainable params: 8,120\n__________________________________________________________________________________________________\n","output_type":"stream"}],"execution_count":46},{"cell_type":"markdown","so
…
